# YOLOv5 🚀 by Ultralytics, AGPL-3.0 license
# yolov6n summary: 147 layers, 3950605 parameters, 3950605 gradients, 10.6 GFLOPs

# Fusing layers... 
# yolov6n summary: 106 layers, 3946781 parameters, 3946781 gradients, 10.5 GFLOPs
# Parameters
nc: 80  # number of classes
depth_multiple: 1.  # model depth multiple
width_multiple: 1.  # layer channel multiple
anchors:
  - [10,13, 16,30, 33,23]  # P3/8
  - [30,61, 62,45, 59,119]  # P4/16
  - [116,90, 156,198, 373,326]  # P5/32

# YOLOv5 v6.0 backbone
backbone:
  # [from, number, module, args]
  [[-1, 1, Conv, [64, 3, 2]],  # 0-P1/2
   [-1, 1, Conv, [128, 3, 2]],  # 1-P2/4
   [-1, 6, Conv, [128, 3, 1]],
   [-1, 1, Conv, [256, 3, 2]],  # 3-P3/8
   [-1, 12, Conv, [256, 3, 1]],
   [-1, 1, Conv, [512, 3, 2]],  # 5-P4/16
   [-1, 18, Conv, [512, 3, 1]],
   [-1, 1, Conv, [1024, 3, 2]],  # 7-P5/32
   [-1, 6, Conv, [1024, 3, 1]],
   [-1, 1, SPPF, [1024, 5]],  # 9
  ]

# YOLOv5 v6.0 head
head:
  [[-1, 1, Conv, [256, 1, 1]],
   [-1, 1, nn.ConvTranspose2d, [256, 2, 2, 0]],
   [[-1, 6], 1, Concat, [1]],  # cat backbone P4
   [-1, 1, Conv, [256, 3, 1]],
   [-1, 9, Conv, [256, 3, 1]],  # 14

   [-1, 1, Conv, [128, 1, 1]],
   [-1, 1, nn.ConvTranspose2d, [128, 2, 2, 0]],
   [[-1, 4], 1, Concat, [1]],  # cat backbone P3
   [-1, 1, Conv, [128, 3, 1]],
   [-1, 9, Conv, [128, 3, 1]],

   [-1, 1, Conv, [128, 3, 2]],
   [[-1, 15], 1, Concat, [1]],  # cat head P4
   [-1, 1, Conv, [256, 3, 1]],
   [-1, 9, Conv, [256, 3, 1]],  # 23

   [-1, 1, Conv, [256, 3, 2]],
   [[-1, 10], 1, Concat, [1]],  # cat head P5
   [-1, 1, Conv, [512, 3, 1]],
   [-1, 9, Conv, [512, 3, 1]],  # 27

   [[19, 23, 27], 1, Detect, [nc, anchors]],  # Detect(P3, P4, P5)
  ]
